CerebralSeagullRelay/blink_model.tflite (tflite, 3028 bytes, 5 tensors)

arith.constant f4 [8]
0	0x3dfed80e	0.12443553
1	0x3e54deb3	0.20788078
2	0x3d81bb4f	0.063345544
3	0x3e5b72ce	0.21430513
4	0x3e96c965	0.29450527
5	0xbdd4e478	-0.103951395
6	0xbd6f6a58	-0.058451027
7	0xbbc44545	-0.005989703

arith.constant2 f4 [1, 8]
0	0x3eae6a27	0.34065363
1	0x3fb0b5dd	1.38055
2	0xbfac8982	-1.3479464
3	0xbf9de71e	-1.2336156
4	0xbf84750c	-1.034822
5	0xbf050b3c	-0.5197027
6	0xbf64cb6e	-0.8937291
7	0xbee26ce7	-0.4422371

arith.constant3 f4 [8, 16]
0	0xbedab095	-0.42712846
1	0x3e7cf9ba	0.24704638
2	0xbc98578c	-0.018596433
3	0xbcd09363	-0.025460904
4	0xbf49fdff	-0.7890319
5	0x3f043b4a	0.5165297
6	0x3f297d69	0.66206986
7	0x3e9e0b12	0.3086782
8	0x3ecf533d	0.40493193
9	0x3cfe4665	0.031039426
10	0x3de62774	0.11237994
11	0x3de29ad1	0.11064685
12	0x3ea62df9	0.3245695
13	0x3e6f6ffb	0.23382561
14	0xbe8db154	-0.27674353
15	0x3e8652c7	0.2623503
16	0xbeec1f62	-0.46117693
17	0x3db3c4e8	0.08777791
18	0xbf2bb133	-0.6706726
19	0xbee1fe93	-0.44139537
20	0xbec743df	-0.3891897
21	0x3ef4bbae	0.47799438
22	0x3f704e33	0.9386932
23	0x3f224d69	0.6339937
24	0x3f00904e	0.5022019
25	0xbf1d94cb	-0.61555165
26	0x3e8839c8	0.26606584
27	0x3e41eaa7	0.18937169
28	0x3f09c549	0.5381666
29	0x3e48a015	0.19592316
30	0x3ddbbe5d	0.10729668
31	0x3d471c85	0.048611183
32	0x3eccab99	0.3997467
33	0x3f15aa6c	0.5846317
34	0xbec98070	-0.39355803
35	0x3e429186	0.19000825
36	0x3ee4543e	0.44595522
37	0xbda3214e	-0.07965337
38	0x3bdeabd1	0.0067953845
39	0xbe95e71d	-0.29277888
40	0x3ed86106	0.42261523
41	0xbedaea9b	-0.42757115
42	0xbcb015f8	-0.02149485
43	0x3ee56548	0.44803834
44	0xbe9524b9	-0.2912958
45	0x3ea0c458	0.31399798
46	0xbeabb595	-0.33536974
47	0xbed81ab9	-0.42207888
48	0x3f1448dc	0.57923675
49	0xbabf802a	-0.001461034
50	0xbeda4c2d	-0.42636243
51	0x3eb2bbd8	0.34908938
52	0x3f0d48cb	0.551892
53	0xbe62158d	-0.22078533
54	0x3e49ef76	0.19720253
55	0x3ee18e24	0.44053757
56	0x3f16d68b	0.58921117
57	0xbd914cae	-0.070947036
58	0xbecfe8b9	-0.4060724
59	0xbe03c477	-0.12867914
60	0xbf1d0622	-0.6133748
61	0xbe321fae	-0.17394897
62	0xbf405d5a	-0.75142443
63	0xbf3fa2ec	-0.74857974
64	0x3f44d5d5	0.7688878
65	0x3d004dd2	0.031324215
66	0xbdf3d55a	-0.11905928
67	0x3e23247b	0.15931885
68	0x3ea373f0	0.3192439
69	0x3f03a0fb	0.5141751
70	0xbcf89603	-0.030344969
71	0x3f43f1fa	0.765411
72	0xbe2c3576	-0.16817269
73	0xbdc0a02f	-0.094055526
74	0xbf166697	-0.5875029
75	0x3f4221ec	0.7583301
76	0xbf227be1	-0.63470274
77	0xbd51831a	-0.05115042
78	0xbf0e5870	-0.55603695
79	0xbde94ac0	-0.113912106
80	0xbf1f1d9a	-0.62154543
81	0xbf271f6a	-0.6528231
82	0x3f13553a	0.5755192
83	0x3e6431d7	0.22284637
84	0xbc8f8e9b	-0.017524054
85	0xbf106f06	-0.5641941
86	0xbf8356d8	-1.0260878
87	0x3ec2126a	0.37904674
88	0xbf1e5b18	-0.6185775
89	0xbdc4d899	-0.09611625
90	0x3e9a277a	0.30108243
91	0xbf0c35b1	-0.54769427
92	0x3ea6d590	0.3258481
93	0xbe981da4	-0.29710114
94	0x3f01b6c9	0.50669533
95	0x3ecd9b95	0.40157762
96	0xbe34cc14	-0.17655975
97	0xbe2e9410	-0.17048669
98	0x3e0ecd63	0.13945536
99	0x3cfaf6b8	0.030635223
100	0xbd5ff9a6	-0.054681443
101	0xbe47000e	-0.19433615
102	0xbf56958c	-0.8382194
103	0xbeb7065a	-0.35747033
104	0xbf70b718	-0.9402938
105	0x3f29c6ea	0.66319144
106	0x3ed39378	0.41323447
107	0xbf58c2ff	-0.8467254
108	0x3f082778	0.53185225
109	0xbe437a8a	-0.19089714
110	0x3e1f0ae0	0.15531492
111	0x3ece3c7f	0.4028053
112	0xbe729a54	-0.23691684
113	0xbe0ff15b	-0.14056914
114	0xbe1bcee6	-0.15215644
115	0xbe94d063	-0.29065236
116	0xbe8650ef	-0.26233622
117	0xbe80fbbf	-0.25192067
118	0xbf30ee6a	-0.6911379
119	0xbee29046	-0.44250697
120	0xbf5f7663	-0.8729002
121	0x3f2a1a0b	0.6644599
122	0x3f17f174	0.59352803
123	0xbf1e5526	-0.61848676
124	0x3ea92af9	0.33040598
125	0xbf0330e8	-0.512465
126	0xbd3b93b1	-0.045795146
127	0x3f03be2d	0.5146206

sequential_1/dense_1/MatMul f4 [16, 5]
0	0xbdc411ad	-0.09573684
1	0x3dd52c85	0.10408882
2	0xbdc7d68a	-0.09757717
3	0x3f3212a5	0.695597
4	0x3f319618	0.6936965
5	0xbef8cde5	-0.48594585
6	0x3ee85ab5	0.45381704
7	0x3eb805b4	0.3594185
8	0x3d9d7b99	0.0768959
9	0x3eb813bc	0.35952556
10	0xbec03317	-0.37538978
11	0xbf1e1ce4	-0.61762834
12	0x3e39e39a	0.1815323
13	0xbee5f204	-0.44911206
14	0xbf0fe75e	-0.56212413
15	0x3f22d447	0.6360516
16	0x3e826e97	0.25474998
17	0xbe00db5f	-0.12583683
18	0x3f3aa47e	0.72907245
19	0x3d952332	0.072821036
20	0x3f323fc0	0.69628525
21	0xbd02a5c0	-0.031896353
22	0x3ecbf757	0.39837143
23	0x3f05f90f	0.5233316
24	0x3f012094	0.50440335
25	0x3ef9e5a9	0.4880803
26	0x3e8953ee	0.26821846
27	0xbe96a761	-0.29424575
28	0x3dafa79c	0.08576891
29	0xbf037036	-0.51343095
30	0x3eb0286b	0.34405836
31	0x3e5e0703	0.21682362
32	0xbf0122c2	-0.5044366
33	0x3f0e11a4	0.5549567
34	0xbeea54c0	-0.45767784
35	0xbeb5f08d	-0.35535088
36	0x3ef88d29	0.48545197
37	0xbf1e7afb	-0.61906403
38	0xbd1d6016	-0.038421713
39	0x3e231398	0.15925443
40	0x3f217f54	0.6308491
41	0xbe814783	-0.25249872
42	0x3e04fe87	0.1298772
43	0x3f35a2ec	0.70951724
44	0xbecf6977	-0.4051015
45	0xbf31806e	-0.69336593
46	0xbeba2697	-0.36357567
47	0x3e010fc5	0.12603672
48	0xbf4d9ca6	-0.8031715
49	0xbed5596c	-0.41669786
50	0x3dad2f88	0.084563315
51	0xbf420d79	-0.7580181
52	0xbf0701af	-0.52736944
53	0xbe959be5	-0.292205
54	0xbef708b9	-0.48248842
55	0x3eea26e5	0.457328
56	0x3ea7f77f	0.32806012
57	0xbef2518a	-0.47327834
58	0xbf019025	-0.5061057
59	0x3f09d911	0.5384684
60	0xbee93cbf	-0.45554158
61	0xbf48dd72	-0.784629
62	0xbee5e546	-0.44901484
63	0x3e67d559	0.2263998
64	0xbf6d0d0b	-0.92598027
65	0x3e5f092f	0.21780847
66	0x3ed373cc	0.41299284
67	0xbf0a90d0	-0.54127216
68	0xbe1e667a	-0.15468779
69	0xbdff07a1	-0.12452627
70	0xbee436f2	-0.4457317
71	0xbee6d533	-0.45084533
72	0x3d866179	0.0656156
73	0xbec8dfe9	-0.3923333
74	0xbe101b03	-0.14072804
75	0xbe4873f2	-0.1957548
76	0xbe2b85a2	-0.16750196
77	0xbefb3761	-0.49065688
78	0xbf0af2f3	-0.5427696
79	0xbf109353	-0.564748

sequential_1/dense_1/Relu;sequential_1/dense_1/BiasAdd f4 [16]
0	0x3e211dbb	0.15733998
1	0x3d878909	0.06617934
2	0xbe54416c	-0.20728081
3	0xbb641223	-0.003480085
4	0x3e2b2630	0.16713786
5	0x3e64df9b	0.22350924
6	0x3e3d98bb	0.18515293
7	0x3e6d6b43	0.23185448
8	0x3eb57aff	0.354454
9	0xbe43a839	-0.1910714
10	0x3e075320	0.13215303
11	0x3e21149c	0.15730518
12	0x3e67c1f0	0.22632575
13	0x3d4c993b	0.04995082
14	0x3e180559	0.1484579
15	0x3d4ae265	0.049532313
